…
WARNING:accelerate.utils.other:Detected kernel version 3.10.0, which is below the recommended minimum of 5.5.0; this can cause the process to hang. It is recommended to upgrade the kernel to the minimum version or higher.
2024-06-30 07:43:53,766:193800:__main__:INFO PPOTrainer created.
2024-06-30 07:43:53,766:193800:__main__:INFO Inference test:
2024-06-30 07:43:53,770:193800:__main__:INFO Main model: model=AutoModelForCausalLMWithValueHead(
  (pretrained_model): PeftModelForCausalLM(
    (base_model): LoraModel(
      (model): LlamaForCausalLM(
        (model): LlamaModel(
          (embed_tokens): Embedding(128256, 4096)
          (layers): ModuleList(
            (0-31): 32 x LlamaDecoderLayer(
              (self_attn): LlamaSdpaAttention(
                (q_proj): lora.Linear(
                  (base_layer): Linear(in_features=4096, out_features=4096, bias=False)
                  (lora_dropout): ModuleDict(
                    (default): Dropout(p=0.05, inplace=False)
                  )
                  (lora_A): ModuleDict(
                    (default): Linear(in_features=4096, out_features=8, bias=False)
                  )
                  (lora_B): ModuleDict(
                    (default): Linear(in_features=8, out_features=4096, bias=False)
                  )
                  (lora_embedding_A): ParameterDict()
                  (lora_embedding_B): ParameterDict()
                )
                (k_proj): Linear(in_features=4096, out_features=1024, bias=False)
                (v_proj): lora.Linear(
                  (base_layer): Linear(in_features=4096, out_features=1024, bias=False)
                  (lora_dropout): ModuleDict(
                    (default): Dropout(p=0.05, inplace=False)
                  )
                  (lora_A): ModuleDict(
                    (default): Linear(in_features=4096, out_features=8, bias=False)
                  )
                  (lora_B): ModuleDict(
                    (default): Linear(in_features=8, out_features=1024, bias=False)
                  )
                  (lora_embedding_A): ParameterDict()
                  (lora_embedding_B): ParameterDict()
                )
                (o_proj): Linear(in_features=4096, out_features=4096, bias=False)
                (rotary_emb): LlamaRotaryEmbedding()
              )
              (mlp): LlamaMLP(
                (gate_proj): Linear(in_features=4096, out_features=14336, bias=False)
                (up_proj): Linear(in_features=4096, out_features=14336, bias=False)
                (down_proj): Linear(in_features=14336, out_features=4096, bias=False)
                (act_fn): SiLU()
              )
              (input_layernorm): LlamaRMSNorm()
              (post_attention_layernorm): LlamaRMSNorm()
            )
          )
          (norm): LlamaRMSNorm()
        )
        (lm_head): Linear(in_features=4096, out_features=128256, bias=False)
      )
    )
  )
  (v_head): ValueHead(
    (dropout): Dropout(p=0.1, inplace=False)
    (summary): Linear(in_features=4096, out_features=1, bias=True)
    (flatten): Flatten(start_dim=1, end_dim=-1)
  )
)
2024-06-30 07:43:53,770:193800:__main__:DEBUG Before model.generate
2024-06-30 07:43:53,771:193800:__main__:DEBUG Decoded: tokenizer.batch_decode(tokens["input_ids"], skip_special_tokens=False)=['<|begin_of_text|><|start_header_id|>system<|end_header_id|>\n\nYou are a helpful AI assistant.<|eot_id|><|start_header_id|>user<|end_header_id|>\n\nBe concise. The capital of France is<|eot_id|><|start_header_id|>assistant<|end_header_id|>\n\n']
…
